cnn.pth (torch, 514631 bytes, 10 tensors)

conv1.0.weight f4 [16, 1, 3, 3]
00000000: bef1 b23d d9a7 353e 684e dcbd 6a26 8f3c
00000010: 3600 af3d 1f03 28bc f358 2e3e 5848 a7be
00000020: 04d2 8f3c 3332 fb3d 7b9f a3be 5e46 55bc
00000030: d236 b9bd 6c3a 52be fd0c f7bc 9d5d 45be
00000040: 1749 873e 4095 8a3d 0eac 5f3d c26c 823e
00000050: 19c1 ff3d cc44 a8be 04fe a03e 254b 50ba
00000060: 7049 493e 4d21 5bbe 43a7 af3d d46f 19be
00000070: 3e96 cb3d 16a3 bd3d 0f48 ba3d 9774 ae3e
00000080: c38f ac3d 8697 afbe ee6e 98bd b26d d83d
00000090: d40f 5a3d eb3c 2fbe 1812 c4bd b46f 3ebe
000000a0: 08f7 27bc 22ab 993e 3281 57bd 3b97 17be
000000b0: 8f42 8b3e ecf5 79bd a392 483e cd09 12be
000000c0: 635c a63d acc0 9ebe 69c6 a53e 8edf 45be
000000d0: 3039 183e 2790 f03d 39df f83d 767c 4e3e
000000e0: c605 50be b483 9a3d 64ab a2bd 0ef4 d5bd
000000f0: 1023 86bd 3ed7 853e 497c 663e f6e2 833e
00000100: c0f7 dfbd 201c b9bd ee14 86be 9976 193e
00000110: ceef 8dbe ec2e 453d 5fc4 bc3d 6912 93be
00000120: 8f8e 1b3e 56f6 743e 4ee0 1fbd 1f9a 823e
00000130: 9d4e 923c 9279 92be ad82 1fbc 094f 9b3c
00000140: 5425 bc3d 1548 77bd 4274 903e 877c ab3c
00000150: 9fab 3b3d c7b2 babd ee4d ac3e 7dde e13d
00000160: dbd3 e4bd cefb 003c eb50 88be 41d2 52be
00000170: f1b3 a7bd 75b6 0cbe 1287 07be cfeb e9bc
00000180: 5e57 593e 861f 92be 3496 543e 56e0 f83d
00000190: e8bf d03d 13cb 2fbd 3a4d 17be 70a8 1abe
000001a0: 8e45 9bbe 3bbc 50be 6340 a03e 9b4a a13c
000001b0: c9a2 89be 611a b03e ba78 b9bd b8c8 90be
000001c0: f3d2 623e 85f4 643e 5700 7d3e 4f62 263e
000001d0: 503e 85be cd1a a4bc 39d5 1bbe 3c25 6ebe
000001e0: aab5 753d 52f0 32be 489d 4f3b 492b 40be
000001f0: a233 4e3e 0057 e43d 33fa 703e 79a5 1ebe
00000200: bdc6 b4bd 18a7 003e 68e7 7fbe af6b 623e
00000210: 7e95 5dbc 100b 58bd 74d3 a9bd 932e 4abe
00000220: 0b47 a43e f3ed a23e 2602 913e 377c dbbd
00000230: 15c7 21be a43c 4fbe 0129 97be 7556 d73d
0.08737515 0.1773981 -0.10757142 0.017474372 0.08544962 -0.01025465 0.17026119 -0.3267238
0.017556198 0.12265434 -0.3195761 -0.013017265 -0.09043659 -0.20530099 -0.03015756 -0.19273992
0.2642295 0.067667484 0.054607444 0.254736 0.12488002 -0.32864988 0.314438 -0.0007945768
0.1965692 -0.21399422 0.085768245 -0.14984065 0.09940766 0.09259622 0.09095775 0.34073326
0.08425858 -0.3429529 -0.07443033 0.10567798 0.05323775 -0.17113082 -0.095737636 -0.18597299
-0.010251768 0.30013376 -0.052613445 -0.14803784 0.27199218 -0.061025545 0.19587187 -0.14261551
0.0812309 -0.31006372 0.32377937 -0.1932356 0.14865565 0.11746245 0.12151951 0.20164666
-0.20314702 0.07544652 -0.079428464 -0.1044694 -0.065496564 0.2614078 0.22508349 0.25759095
-0.109359264 -0.090385675 -0.26187843 0.14986648 -0.2772202 0.04814045 0.09217142 -0.28724983
0.151911 0.23922095 -0.039032273 0.2550821 0.017859751 -0.28608376 -0.009735745 0.018958585
0.09186807 -0.060371477 0.28213698 0.020933403 0.045817968 -0.0911613 0.33653206 0.110287644
-0.11173221 0.007872535 -0.26624236 -0.20588018 -0.08188618 -0.13741477 -0.13235119 -0.028554825
0.21224734 -0.28539675 0.20760423 0.12152164 0.10192853 -0.042918276 -0.14775553 -0.15103316
-0.30326504 -0.20384304 0.31299123 0.019688895 -0.26882008 0.34395126 -0.0905623 -0.28278136
0.22150783 0.22358902 0.24707161 0.16248439 -0.26024103 -0.02003231 -0.15218057 -0.23256391
0.0599877 -0.17474487 0.003167944 -0.18766512 0.20136884 0.111494064 0.23532943 -0.1549281
-0.08826969 0.12563741 -0.24990618 0.2211139 -0.013524411 -0.052744925 -0.082922846 -0.19744329
0.3208545 0.31822166 0.28321952 -0.107170515 -0.157986 -0.20237976 -0.2952347 0.10514537

conv1.0.bias f4 [16]
00000000: e4d8 41be ecb6 d3bd 3a05 20bd 4c01 dfbd
00000010: 70d1 cabd 237b 313d ec8e 933e d9b6 d4bd
00000020: 1e31 11be c04d 7cbe dc50 6b3d 020e 853e
00000030: 1dbc febc 8e9c ca3d b222 ea3d 9bd1 6abe
-0.18930393 -0.10337624 -0.039067484 -0.10888919 -0.09903228 0.043330323 0.28819978 -0.10386438
-0.14178893 -0.24639034 0.05745016 0.2598725 -0.031095559 0.09893142 0.11432399 -0.2293152

conv2.0.weight f4 [32, 16, 3, 3]
00000000: cc94 42bd 2e53 05bd 9153 1dbc d73e cabc
00000010: ba75 db3b 485d 89bc 14ce e93b ed27 be3d
00000020: 6e69 3f3d c89a fdbc 6a5b efbc bb14 81bc
00000030: 6bb9 09bd 36ec 9bbd f8c2 653c f9da 0fbc
00000040: f0d5 9bbc ff43 2ebd 4a04 033c f780 a2bd
00000050: d6d2 b63d b8a2 db3b da7d 74bd 9bc7 85bc
00000060: 3099 41ba 5314 25bd 1d8e 66bd e717 24bd
00000070: 7149 3c3d 65d9 b63d e41c 2bbd 1f43 783d
00000080: 00d6 7bbd a119 0c3d 3118 6f3d 3c27 bfbc
00000090: cb78 283d 9c32 5d3c 1c75 553d 4f19 e7bc
000000a0: 9426 a53c 40fe 8dbd d4ec 10bd 63a5 963c
000000b0: 56d7 b53c 604e 79bc 323e 87bd d84f 77bd
000000c0: 99b0 60bd 5a36 8dbd 8f29 c03d f593 9a3d
000000d0: b43d 713d 18fa 3bba a26a f43c 88c5 18bd
000000e0: 354e a23c bcee 9e3d 7ab6 3e3d 5756 89bc
000000f0: a6ca f73c 2883 883d 7cf9 91bc ab62 b1bb
00000100: e1d5 0a3d 419c 983d 528b 8dbd 24de a63d
00000110: da26 60bd 29b8 593d 7af7 68bc c674 a93d
00000120: f93a 243d 6fba bd3c 3d22 70bc e3e9 8d3b
00000130: 4b58 e1bc 074c 863a 712f 183d 57cf 37bc
00000140: c510 18bd 2a2d ddbc 3e18 9cbd d01f b63d
00000150: 1e71 6e3d 6c44 9fbd 26bc 843d b294 cbb9
00000160: c6b0 103d 6c92 9fbd c53c b3bd b0cb 51bc
00000170: 3124 a13d df38 75bd f7c0 ffbc 0380 fabb
00000180: a903 debc ec5b cf3c 1507 54bd 733e a33d
00000190: 40a6 46bd 8c12 b93d 95f8 893d 786c 7cbc
000001a0: 8830 10bd 5646 833d af86 9b3d ef6a 823d
000001b0: c2c1 163d 93b3 943d 9eff 92bd 990f 32bc
000001c0: 5fb4 1e3d c7c9 9d3d ccc1 863d 37a0 29bb
000001d0: 9c46 483d 1885 b4bd 171d 6fbd b58d 2e3d
000001e0: f00f 753d dee4 92bd c4e3 1c3d f349 733d
000001f0: 59cb 63bd 098f 0abd 3298 0fbc 24b5 313d
00000200: 7dca 67bd 6055 1abc 385f 113d 3c24 b93d
00000210: aec1 cd3a 1e66 69bc ccfa 333d 533f 06bd
00000220: 89cf 243d 6f0f 9dbd 3fa8 313c 148a 48bc
00000230: 44a0 c13d 41e3 86bd b117 503d 9253 42bd
00000240: 9303 abbd 8a62 5abd 0ee0 c1bc 8c83 4ebd
00000250: 430d 9fbd 34f2 573d 34f5 4cbc d906 01bc
00000260: 16c4 93bd f0e9 3d3b eea2 a8bd 52aa fe3c
00000270: 724e 1b3d 8a58 42bd cb7d f63c 5429 9bbc
00000280: 8f2d 533d df48 393d 8e14 323d b528 863d
00000290: 0a45 c6bd 4475 d0bc 6910 b0bd f51d 71bd
000002a0: 67ef 3fbd ec4e 8bbd 1b4c 94bc 82b2 0fbc
000002b0: 3d3d 20bd c129 81bd 2aa2 c0bd 4ee2 bd3b
000002c0: 6ba6 ccbc f9e9 95bd 3f5b a6bd a78b 93bd
000002d0: 2f66 3ebb 4d79 433d 42b0 86bd 009f 5a3d
000002e0: d055 023c 672c 693d 8db0 4cbd 56d7 64bd
000002f0: 73be 38bd 62b0 383d b6d6 ebbc a74d c4bc
00000300: 3019 163d b1eb 4cbd 956d b2bd 448f 923c
00000310: e70d 98bc 201c 0ebd 9302 863d 8d95 42bd
00000320: 719d aabc 7806 613d 3643 46bd 4a79 473d
00000330: 197a 7dbd e2a5 233d a32e 393d dcbd 853c
00000340: 2dd4 b93c bf59 ac3b 532d 0b3d 21f5 ffbb
00000350: ddda fc3a f511 7b3d 881d f1bb c664 6e3d
00000360: 4aae d7bc 4f0f 2bbd bbae 99bd 57a6 f93c
00000370: b15c f8bc b045 643d 0b28 0b3d 5097 15bd
00000380: c4a8 bfbd 3397 803d 1cc5 873d 3d65 94bc
00000390: 4ba8 203d 1d5d 39bc 0cb0 533d 30c3 943c
000003a0: e395 863d 3434 db3c 570d df3b aed1 9dbc
000003b0: 24cf adbd 507f 44bc 05f9 afbc 5240 a53c
000003c0: 828b d8bb 6de7 b5b9 87c3 d23b 27d9 243d
000003d0: fae7 6dbd cdc3 903c 5443 9dbd e14d 7d3d
000003e0: c0eb fd3c 8b83 263d 6ce3 4cbb bde4 2bbd
000003f0: 850b 883d 89ad cbbb 90fb f03c df56 4cbc
-0.047505185 -0.03255003 -0.009602443 -0.024688167 0.0066973837 -0.016768113 0.007135162 0.09284959
0.046731405 -0.030957595 -0.029218394 -0.015756955 -0.033624094 -0.07613413 0.014023535 -0.0087802345
-0.019022912 -0.042545315 0.007996628 -0.07934754 0.089269325 0.006702747 -0.059690334 -0.01633053
-0.00073851924 -0.040302586 -0.056287874 -0.040061858 0.045968477 0.089281835 -0.0417756 0.060610887
-0.061483383 0.03420413 0.05837268 -0.023334138 0.041130822 0.013500836 0.052113637 -0.02821031
0.020159997 -0.0693326 -0.035382107 0.01838941 0.022197407 -0.01521644 -0.0660366 -0.06037888
-0.054855917 -0.06895132 0.09382927 0.07547752 0.058896735 -0.0007170751 0.029836003 -0.037297755
0.019812683 0.07760379 0.046560742 -0.016764803 0.030247997 0.06665641 -0.017819159 -0.0054133735
0.033895377 0.07451678 -0.06911339 0.08147839 -0.05472455 0.053154144 -0.014219159 0.08274226
0.040095303 0.023160188 -0.014656601 0.00433086 -0.027507922 0.0010246047 0.03715462 -0.011218867
-0.037125368 -0.026999075 -0.07621811 0.088927865 0.058213346 -0.07776722 0.06481199 -0.00038829964
0.035324834 -0.077916 -0.08751825 -0.012804911 0.07868231 -0.05986869 -0.031219942 -0.0076446547
-0.027101355 0.025312386 -0.051764566 0.079708956 -0.048498392 0.09036741 0.067368664 -0.01540672
-0.035202533 0.064099 0.07594048 0.06368052 0.036805876 0.072608136 -0.07177661 -0.010867977
0.038746234 0.077045016 0.065799326 -0.002588285 0.048895463 -0.08814448 -0.05837735 0.04261561
0.059829652 -0.07172559 0.03830315 0.059396695 -0.05561385 -0.033827815 -0.0087643135 0.04338564
-0.056589592 -0.009419769 0.0354912 0.09040114 0.001569798 -0.014245538 0.04394035 -0.032775234
0.040236983 -0.07668959 0.010843336 -0.012239952 0.09454396 -0.06586314 0.050803844 -0.04744298
-0.08350291 -0.05331663 -0.023666408 -0.05041842 -0.07766201 0.052721217 -0.012509633 -0.007875168
-0.07215135 0.002897855 -0.08234201 0.031087074 0.03791661 -0.04744772 0.03008928 -0.018940605
0.05155712 0.04523551 0.043476634 0.06550733 -0.09681137 -0.025446542 -0.0859688 -0.05886646
-0.04685917 -0.068021625 -0.018102696 -0.008770587 -0.0391209 -0.06306792 -0.0940593 0.0057948
-0.024981698 -0.07320017 -0.081228726 -0.07204371 -0.0029052605 0.047723103 -0.06576587 0.05337429
0.00795503 0.05692711 -0.04997306 -0.055869423 -0.0451035 0.045090087 -0.028788906 -0.023962809
0.036645114 -0.05002946 -0.08712307 0.01789058 -0.018561317 -0.03469479 0.0654346 -0.047505904
-0.020827027 0.05493781 -0.04840394 0.048699655 -0.06188402 0.03995312 0.045210492 0.016325884
0.022684181 0.005259722 0.03397877 -0.007811204 0.00192913 0.061296422 -0.0073582567 0.058201574
-0.026328225 -0.041762646 -0.0750403 0.030474825 -0.030317636 0.05573052 0.033973735 -0.036521256
-0.09358361 0.06278839 0.066293925 -0.01811468 0.039222997 -0.011313704 0.051681563 0.018159479
0.065715574 0.02675829 0.00680701 -0.019265022 -0.084867746 -0.011993244 -0.021481046 0.020172272
-0.0066084275 -0.00034695436 0.006432 0.040246155 -0.05808256 0.01767149 -0.076788574 0.06184185
0.030996203 0.040652793 -0.0031263484 -0.04196619 0.06642822 -0.0062157554 0.02941683 -0.012471884

conv2.0.bias f4 [32]
00000000: aba9 84bd 9c93 22bd 1068 8c3d 01c7 88bd
00000010: 580f ec3c 2405 cd3c d830 e63c 128e 4f3d
00000020: 0a17 a4bd 8ead 86bd c4e8 28bd 16e4 99bc
00000030: e8cb bdbc b903 8b3b 0f48 90bb 7741 95bd
00000040: 4bf6 e4bb f52c f63c c651 bcbb a3cc 933c
00000050: dce1 74bd 9956 87bc c6a4 3dbd c37e dd3b
00000060: 2851 33bd b68f 5bbd 1354 35bd 9db5 b5bd
00000070: 47ce 56bd bed3 23bd e392 16bd 3857 843d
-0.06477674 -0.039691553 0.06855786 -0.06678582 0.02881591 0.025026865 0.028099462 0.0506726
-0.08012207 -0.06576072 -0.041237608 -0.018785518 -0.02316852 0.004242387 -0.0044031213 -0.07287877
-0.006987368 0.030050734 -0.005747053 0.018041914 -0.05978571 -0.016520785 -0.04629972 0.006759496
-0.04377857 -0.05360385 -0.044269633 -0.088725306 -0.052442815 -0.039996855 -0.036761176 0.06461948

conv3.0.weight f4 [64, 32, 3, 3]
00000000: fbec 013d c123 9ebc 1c37 7cbd 40d4 37bd
00000010: f140 be3a 4aa2 df3c 7270 dd3c 6eb4 a1bc
00000020: 17c4 743d 501e 30bd 6549 7d3d a453 68bc
00000030: de04 16bc d2d4 14bc 1c4f c13c c24f 683d
00000040: 0075 5ebb a142 6cbb a5e8 5f3c 80df edbb
00000050: 5255 34bd aec0 313d 4db2 51bc 1391 633d
00000060: e2fe 56bd c490 7bbd 044f 2bbc bf9c 383d
00000070: 8e62 31bd c9c8 b9bc c61e 00bd 2eea 453d
00000080: 2673 e53c 3528 33bd b264 9f3b 7c6a 673c
00000090: c715 193c d04b 0fbc 7eae 3f3d 4fc9 913b
000000a0: 77cd 59ba e3a0 92bc 7803 dc3c 6d78 afbc
000000b0: d3ae a7bc 634a 2c3d ba2b c33c 6a57 f3bc
000000c0: 14fe 1cbd 42b5 1b3d 5cad 1dbd ea7f 0a3c
000000d0: b607 453b 8030 5bbd 12bc 933d 2ab1 963d
000000e0: be28 29bd c8d2 b83c 8368 adbc ecb3 1a3d
000000f0: acea ed3c ec54 833c 1f47 a33b 9930 8bba
00000100: 385d d8bb 5cbb c43c 0843 cabc 9676 21bd
00000110: 5fed 09bd a830 e6bc 4837 a13b f95a 11bd
00000120: e113 5d3b d585 17bd 2da8 c03b eb31 25bd
00000130: 4499 693d 597f 9fbb a73b 973b 83ef 743c
00000140: 252d fc3c 8290 563d 6caf 5a3d 44a5 be3b
00000150: fbe2 7f3c abeb 043c 1825 39bc 766a 43bd
00000160: a94b 84bc e76a b53b 5966 043d 0ddf a0bb
00000170: f23f c43c d339 013d e689 acbb c4fc 573c
00000180: d9bb 833d 49a3 1ebd b43f 7a3d d478 fa3c
00000190: 7e83 19bd 7ff5 01bd 71fd afbc 70ac 72bd
000001a0: 24b2 95bc 38fa 673d 5f3b 3bbd 7da2 6c3d
000001b0: e73c 963c aea1 0bbd dbbf a3bc bb0d 1b3d
000001c0: b604 b6bc adc5 5abd d4a1 56bc 4cd3 673c
000001d0: 7c98 4b3d b0d8 383c f793 e83c f008 52bd
000001e0: d5e2 473d 6fcc 5cbd 72ea 1c3c 0317 563d
000001f0: df70 a23c 6a1d 16bd 7413 a83c 4e77 9fbc
00000200: 4d7b 58bc 96d5 703d 7cf1 023d a1fd 46bd
00000210: a04a 993c a042 00bd 3094 383c 4b19 0a3d
00000220: 57d5 8abc 3f13 e4bc 9f86 23bd 38b3 10bb
00000230: 91f6 5f3d afab a23c 5a4e 31bd be02 3cbd
00000240: 548b 44bc 786a 9abc e466 493d 7a64 463c
00000250: f9bc 86bc 34bb 29bd 7179 29bd 2d1b 1fbc
00000260: f126 39bd 0c94 65bb ae48 663c 5de1 05bd
00000270: 76f8 853c e9ed 8c3d f6f3 643d b77f 8b3c
00000280: c3ab 4ebd cae6 81bd f206 163d df1a 283d
00000290: 769d 563d 006c 6d3c 3674 3cbd d068 fc3c
000002a0: f809 393d 4c45 a93c 65bd 3dbb 7451 c23b
000002b0: efe8 7bbc 1da3 fcbb 7a5a 4f3d 1ba1 b1bc
000002c0: 4449 dcbc 9ef0 093c 2d2e 57bd b4d9 fabc
000002d0: be7c 7abc 0d89 5d3d a3af 553c 7613 2f3b
000002e0: 97a0 80bb ad2c 3d3d 586c b0bc dbab af3c
000002f0: f534 2cbd 19a6 2c3d 7b95 0c3d 8c2f 54bd
00000300: 63ba f1bc 4a82 b9bb f946 613a 5439 40bc
00000310: b729 82bd 99bf 4bbd cb15 473c 71b1 273d
00000320: 79a0 35bb 8d8f 943d 56ae 23bd 97f7 3e3c
00000330: 73b8 d1bc 4b94 46bd a3ff 493d 152f a13a
00000340: c7ac 553d 61ba 54bd 7df5 2f3c dc42 7c3b
00000350: b9f4 5f3d e221 e53b 6688 483d 2fba 4f3c
00000360: 5c17 023d 46ca d43c 025c 903b 1933 0c3d
00000370: 8ec8 833d 131c b93c b5fd 68bd 2861 62bd
00000380: 2742 28bd 23f6 2cbd 275d 1cbd e2a5 4ebc
00000390: bc7b 483d 4731 8c3c 27e8 523d 06eb 25bd
000003a0: 4850 61bb 81ac 583c a497 733d 820d 5d3c
000003b0: e1d8 133d 06c7 613d a5c4 7b3d 78e8 e13c
000003c0: a51e 00bd 8ed6 743d a325 1fbd 9eb2 a83c
000003d0: 412f f6bc 693f d7bc b029 133d e7cc 2bbd
000003e0: 78cd 01bd f82f c6bc 8258 6b3d b0e6 19bc
000003f0: 0330 e139 b087 da3c 1ebb 773d afb0 e13c
0.031720143 -0.019304158 -0.061575994 -0.04488015 0.0014515204 0.027299065 0.027031157 -0.019739356
0.05975732 -0.04299766 0.061837573 -0.014180098 -0.009156434 -0.009083943 0.023597293 0.056716688
-0.003394425 -0.0036050456 0.013666307 -0.0072593093 -0.04402668 0.043396644 -0.012798858 0.055558275
-0.05248917 -0.061417356 -0.0104558505 0.04507136 -0.04330688 -0.02267875 -0.031279348 0.048319034
0.028009009 -0.043739516 0.0048642987 0.014124509 0.009343571 -0.008746102 0.046797268 0.0044490467
-0.000830851 -0.017898982 0.026857123 -0.021419728 -0.020469105 0.04206313 0.023824561 -0.029704768
-0.038328245 0.038014658 -0.038495407 0.008453349 0.003006441 -0.05351305 0.07213606 0.0735801
-0.04129862 0.022561446 -0.021168 0.037769243 0.029042564 0.016031705 0.0049828435 -0.0010619342
-0.0066029094 0.024015121 -0.024690166 -0.039419733 -0.03367364 -0.028099373 0.00491992 -0.03548715
0.0033733773 -0.036992867 0.005879423 -0.04033081 0.05703093 -0.004867476 0.0046152654 0.014949682
0.030783245 0.052383907 0.05338995 0.005818041 0.015618081 0.008112828 -0.011300348 -0.04770895
-0.016149359 0.0055364254 0.03232417 -0.004909402 0.023956273 0.031549286 -0.005265462 0.013182823
0.064323135 -0.03872994 0.06109591 0.030575193 -0.037478916 -0.031728264 -0.021483155 -0.05924648
-0.01827342 0.05663511 -0.045710918 0.05777215 0.018339587 -0.034089737 -0.019988945 0.03785489
-0.022219043 -0.053411175 -0.013100106 0.014149498 0.049705967 0.011282131 0.028390868 -0.051278055
0.04880031 -0.0539059 0.0095773805 0.05226804 0.019829212 -0.036649145 0.020517088 -0.019466069
-0.013212991 0.05879744 0.03196858 -0.048581723 0.018712342 -0.03131354 0.011265799 0.033715528
-0.016947431 -0.027841209 -0.039923307 -0.002207948 0.054678503 0.019857256 -0.043287612 -0.045901053
-0.011996109 -0.018849596 0.04917039 0.012108916 -0.016447531 -0.041438296 -0.04137558 -0.009711069
-0.045203153 -0.003503087 0.014055414 -0.032685626 0.016353827 0.06881315 0.05589672 0.017028673
-0.050456773 -0.06342848 0.036627717 0.04104125 0.05239626 0.014491081 -0.046009265 0.030811697
0.045175523 0.020662926 -0.0028952 0.00593012 -0.01537536 -0.0077098743 0.050623395 -0.021683266
-0.026890405 0.008419184 -0.05253427 -0.030621387 -0.01528853 0.05408578 0.013042363 0.002671448
-0.003925394 0.046185184 -0.021536037 0.021444252 -0.04204269 0.04215059 0.034322243 -0.051803157
-0.029507821 -0.0056612836 0.00085936446 -0.011732418 -0.06355613 -0.04974327 0.012151192 0.040940706
-0.0027714057 0.07253943 -0.03996118 0.01165571 -0.025600648 -0.048481267 0.04931606 0.0012297357
0.052166726 -0.051935557 0.010739681 0.0038492 0.054676745 0.0069925645 0.048958205 0.012678667
0.03176056 0.025975358 0.0044054994 0.034228418 0.06434737 0.022596395 -0.05688258 -0.055268437
-0.041078713 -0.04222692 -0.038174774 -0.012612792 0.048946127 0.017113341 0.05149093 -0.04050734
-0.0034380127 0.013224722 0.059470788 0.01349199 0.036095504 0.055121444 0.06146683 0.02757667
-0.031279225 0.059774928 -0.038854253 0.020592984 -0.03005183 -0.026275354 0.03592843 -0.041943457
-0.03169009 -0.024192795 0.057457455 -0.009393379 0.00042951116 0.026676029 0.060481183 0.02755007

conv3.0.bias f4 [64]
00000000: 1243 a6bc 6a85 c53b 68f6 65bd 7e8d 5cbd
00000010: e02f 10ba bea5 82bc 4036 eb3c d292 173d
00000020: b7ed b73a f730 6bbd 1c6f 12bd 6119 30bd
00000030: 2878 14bd efc6 7fbb 2ef9 433c 7143 f1bc
00000040: 0ad3 02bb b758 a23c d9d5 75bc 6711 b8bb
00000050: c3c2 6ebc 3b39 4cbd c1b8 1bbd d020 a13c
00000060: 8053 5abd 1d7b cebc 3522 833d 94ba 293c
00000070: 01a8 a0bc 97ce 943b 68e1 2bbd cae3 52bd
00000080: d1dd 02bd bc17 ed3a ddba cc3c 48e5 403d
00000090: 5b7d 63bd 3486 adbc fb31 223d 0465 a4bc
000000a0: 936c 77bc 4471 5fbd a007 57bb 8be7 d03b
000000b0: 7734 dbbc a577 bfbc 6c87 bf3b e523 643d
000000c0: efaa a9bc de85 21bd ecb4 bcbc 9db2 67bd
000000d0: 3f24 53bd 14ec c73c c239 ecba 1bf8 c03c
000000e0: 00bc 79bb 0406 b339 09db 73bd ea39 8f3c
000000f0: 5a70 c93c 54c4 4e3d 06b7 75bd 1dba 9a3c
-0.020295653 0.006027867 -0.056143194 -0.053845875 -0.0005500298 -0.015948173 0.028712392 0.037005253
0.0014032637 -0.057419743 -0.035750493 -0.042992953 -0.036247402 -0.0039028486 0.011961265 -0.029451104
-0.0019962215 0.019817693 -0.015004599 -0.005617309 -0.014572802 -0.049859267 -0.038017992 0.019668967
-0.053302288 -0.02520519 0.06403009 0.010359425 -0.01961136 0.004541229 -0.04196301 -0.051486768
-0.03194982 0.0018088738 0.024991447 0.04709366 -0.05553947 -0.021182157 0.039598446 -0.0200677
-0.01510157 -0.054551378 -0.0032810941 0.0063752583 -0.026758416 -0.02337248 0.005845001 0.055698294
-0.02071139 -0.039434306 -0.023035489 -0.056566823 -0.05154824 0.024404563 -0.0018022584 0.023555806
-0.0038106441 0.00034146023 -0.05953506 0.01748367 0.024589706 0.0504802 -0.059988998 0.018887574

conv4.0.weight f4 [128, 64, 3, 3]
00000000: 98e6 c6bc e8e9 16bd a503 c23c de3e b33b
00000010: ca6c 61bc 7553 2d3c 73e9 053c 48d5 683c
00000020: d0d0 ab3c 61fd 3b3a 5998 1abd 5e98 6b3b
00000030: bf0a 08bd 4fc7 09bd 976b c23c 650e 6ebc
00000040: 3de4 43bd 5f36 d1bb 837e babc f9df 14bd
00000050: 84bb 36bd 889f a3bc 72d7 35bd 75b1 eabc
00000060: a58a fc3b 6592 06bd bed2 0fbd d5e1 b8bc
00000070: 8595 d6bc ce40 7f3b 88de a53c 3cd2 f83c
00000080: aeff 1fbd d2b7 ca3c ec72 163d 5e9b 1dbd
00000090: 7d5f 023d 8466 ab3c 8642 e73c 93c1 3fbd
000000a0: 6777 80bc 03a2 a9bc 3fd5 99bc 3864 35bd
000000b0: a28a f6bb c433 1b3b 6736 07bb 48d8 3cbd
000000c0: 02c6 dcbc f72e 4b3c d97e 813c 1c2e c93b
000000d0: efe8 38bd 3e44 d13c 1200 d0bc 1361 f7bc
000000e0: 260e 033d f860 21bd 44fc 443a dcc4 babc
000000f0: b877 a93c 3466 61bc 8163 1dbd dae9 f3bc
00000100: 07ed 19bd b752 d4bc 62f1 493c ca18 22bc
00000110: 3a1a 8bbc e13b cf3b 04cf 1fb9 ceed dfbc
00000120: 51d8 c23b 11d1 1dbd 7669 e1bc 826a bebc
00000130: 4be6 78bb 871a 893c 4ac7 a73c 1eba 95bc
00000140: fb80 ac3c 8a86 37bd 4737 02bc e7a2 22bd
00000150: f13f b63c bcd2 fd3b 69a4 1bbd 5fc7 c7bb
00000160: 19b5 553c a1cc 5d3c e1c6 16bd fa73 2bbd
00000170: 6aec 01bd b868 18bd 490d a7ba 66eb fd3c
00000180: 9683 1ebc 0e8e e73c bb3d e9ba 8322 963c
00000190: fac5 533c 2f41 0b3d 0cbe 073d 2d28 3cbd
000001a0: fb71 be3c 075f a0bc 1c88 933c 2195 2bbd
000001b0: 5bcf 1dbd 61a6 66bc 55a7 9d3c 475f 133c
000001c0: 8db4 11bc faec f83c a879 14bc 3748 2dbd
000001d0: e056 053d 1d33 003c 7225 d43c 2d17 8bbb
000001e0: cd96 ac3c 53e3 9fbc ceda f93c 9011 653c
000001f0: 3feb 19bd d6db 10bd 1955 c33c ba9d 2eba
00000200: 595a 163c 8754 c5bc 7cb9 dabc 8531 913c
00000210: d8ec dfbc fb7c 15bd ef24 0dbc ab6b 8d3b
00000220: cd6f ec3b 8a8c 873c b214 fbbc 7b4f 093c
00000230: 61ec 813c e7a4 19bd 0e2f 35bd 1b5f 023d
00000240: 0d68 17bd a698 39bc 32ab abbb 276a 01bd
00000250: 4a55 d63c c3f0 dabc 4591 c83c 3a52 893b
00000260: 1338 e6bc a3d3 1ebd 1608 27bd 4212 71bc
00000270: 4efe f93c 4395 993c 30f0 913b 8110 d6bc
00000280: 9e7b bb3c 3a3b 22bc 127d b4bc 1da0 5abc
00000290: 5b13 d73b 3dcb da3c 0cdb 58bc b5ae 17bd
000002a0: 62cd e7bb 3a92 20bd 5c58 0fbc 08a5 6abc
000002b0: 760e 033b 7fd5 7a3c dfd4 74bb e36b 0fbd
000002c0: 98f5 3abd c7af f6bc 4bd5 3cbd dc94 e03c
000002d0: 97f2 19bd 0535 97bb 8720 103b 4f1f 35bd
000002e0: ba5f 123c de46 d4bb d0b3 3bbd e72f b3bc
000002f0: 5660 7cbc 6e75 073d 730f 133d dd57 003c
00000300: 3610 613b ae2a 133c c8f6 43bd e4e7 c5bc
00000310: 830c c4bc 9d4b 9aba 78c6 8e3c 439d d7bc
00000320: 35e2 ad3b 9bc9 8bbc 5ebd fc39 819b de3c
00000330: 9769 093a 9f13 373d c84c 37bd 178e 64bc
00000340: f95b 003d 1861 d33b 736b fd3a fdbc 3cbd
00000350: c1ed df3c 2196 e83c 810f 29bc e0da 213c
00000360: f475 e73c 12ee 39bd 5118 993c 4ca7 9d3b
00000370: 4552 56bb 7c75 003d d181 863c df26 46bc
00000380: f81b f63c e4f6 3dbd 2daf fdbc 87e8 e33c
00000390: 71de 253c c4d4 3fbd a8cc 02bd b483 0bbd
000003a0: 9ed9 fd3c 5ec4 86bc a19b 09bd 93f5 35bc
000003b0: 7b35 b8bc 6c43 063d 1a88 e7bc b143 e6bc
000003c0: 3f82 caba 704d c7bb 9d7d 28bd 4dbe 3abc
000003d0: e480 cfbc 8a84 2fbc 0353 9abc 8154 aabc
000003e0: ab46 c43c bd51 95bc 2169 c9bc 6f68 d73c
000003f0: e88e 69ba 5cb7 cd3c 9fc1 02bc 4d99 63bc
-0.024279878 -0.036844164 0.023683378 0.005470141 -0.0137588475 0.01057898 0.008173334 0.014211006
0.020973593 0.000717124 -0.037742946 0.0035948972 -0.033213373 -0.03363734 0.023732943 -0.014529799
-0.047825087 -0.0063846554 -0.022765404 -0.03634641 -0.044612423 -0.019973531 -0.044394918 -0.028649071
0.0077069574 -0.032854456 -0.03511309 -0.022568623 -0.026194343 0.0038948539 0.020247713 0.030373685
-0.039062195 0.024745855 0.03673069 -0.038478248 0.031829346 0.020922907 0.028229963 -0.046815466
-0.015681935 -0.020707136 -0.018778441 -0.04428503 -0.0075238505 0.0023681978 -0.0020631792 -0.0461047
-0.026949886 0.012401334 0.015807556 0.00613953 -0.045144018 0.025545236 -0.025390659 -0.030197656
0.031995915 -0.039399117 0.0007514397 -0.022798948 0.02068697 -0.013757277 -0.038424972 -0.029774595
-0.037579563 -0.025918348 0.012325617 -0.0098936055 -0.01698028 0.006324277 -0.00015240541 -0.027335074
0.005946197 -0.03852946 -0.027516108 -0.023244146 -0.0037979062 0.016736282 0.02048077 -0.018277224
0.021057596 -0.04480604 -0.007947749 -0.039706137 0.022247287 0.0077460688 -0.03799859 -0.006096765
0.013043665 0.013537557 -0.03681076 -0.04185865 -0.031719603 -0.037209243 -0.0012745048 0.030996036
-0.009674927 0.02826598 -0.0017794886 0.018327003 0.012925619 0.03399771 0.033140227 -0.045936752
0.02324771 -0.019576563 0.018009238 -0.041890267 -0.038527828 -0.014077754 0.01924483 0.008994884
-0.008893144 0.030386437 -0.009062208 -0.042305198 0.032553554 0.007824686 0.025896762 -0.004244706
0.021068001 -0.019517576 0.030499842 0.013981238 -0.037577864 -0.035365902 0.023844289 -0.00066610763
0.009176814 -0.024088157 -0.026699774 0.017723808 -0.027334616 -0.036496144 -0.008614763 0.0043158135
0.007215476 0.016546506 -0.030649517 0.008380766 0.015859785 -0.03751078 -0.044234328 0.03182898
-0.036964465 -0.011327898 -0.005238914 -0.031595375 0.026163716 -0.026726132 0.024483332 0.0041907104
-0.02810291 -0.03877605 -0.040779196 -0.014713826 0.03051677 0.018747931 0.0044536814 -0.026130917
0.022886094 -0.009901816 -0.022032294 -0.013343838 0.0065635866 0.02670824 -0.013235819 -0.037031848
-0.007074044 -0.039201953 -0.008749094 -0.014321573 0.0019997633 0.0153096905 -0.0037358326 -0.035015
-0.045644373 -0.030113114 -0.04610185 0.027414732 -0.037584867 -0.0046144747 0.0021992044 -0.04421931
0.008933956 -0.0064781746 -0.04582578 -0.021873428 -0.015403828 0.033070974 0.035903405 0.007833448
0.0034341938 0.008982344 -0.04784277 -0.024158426 -0.023931747 -0.0011771802 0.017428622 -0.026320105
0.005306507 -0.017063906 0.00048206275 0.02717376 0.00052418694 0.044696447 -0.04475096 -0.0139498925
0.031337712 0.0064507835 0.001933439 -0.04607867 0.02733505 0.0283919 -0.010318638 0.009878844
0.028254487 -0.045393057 0.018688353 0.004811203 -0.0032702845 0.03136204 0.016419323 -0.0120942285
0.030042633 -0.04637803 -0.03096732 0.027820839 0.010123835 -0.04683377 -0.031933457 -0.03406115
0.030987557 -0.016451057 -0.033595685 -0.011105913 -0.022486439 0.032779142 -0.02826314 -0.02810845
-0.0015450193 -0.0060822293 -0.04113542 -0.01139791 -0.025330015 -0.010712752 -0.018838411 -0.020792248
0.023959478 -0.018227452 -0.024586262 0.026294915 -0.00089095393 0.025111847 -0.007980733 -0.01389153

conv4.0.bias f4 [128]
00000000: 467d abbc c643 4fbc a3eb dcbc dff6 a73c
00000010: f886 bc3c d366 fdbc f889 16bd d2e9 64bc
00000020: f63a 21ba 6059 13bc 8730 e93c e49d b63c
00000030: 33d2 cf3c 18f8 27bd 2790 343c d25d 4abc
00000040: cf0b 3a3c 3ba9 bb3c 5041 d53c c2a4 b1bc
00000050: e7b4 cc3c 5cbe 923b 1c64 833c 04df 45bc
00000060: 5cb1 003d 32c9 b63c 84a0 3dbc 51aa 36bd
00000070: 3040 d4bc a2aa 3abd 9139 673c 58e2 a5bc
00000080: 9b75 50bd 6a52 23bd 7f40 70bd 282d d5bc
00000090: bd42 1f3b 66ef 10bd 234a 933c 0770 49bd
000000a0: 0d0c cdbc c51c 943c c81b 82bc 33e1 2cbd
000000b0: 07e5 b43c 415f 08bd 471e 05bc 989f febc
000000c0: a225 3fbd 8924 e3bc a275 bebb e28b 6fbb
000000d0: 16dc 873a f76d 10bc e955 d73b 4952 1b3c
000000e0: ea2c f2bb fbdf 443b fb42 d93c bf57 29bc
000000f0: 4a39 fb3b 9c26 cc3c 6d97 85bb fc8f 00bd
00000100: aebc 36bd a1e3 7ebc c858 913a b772 b2bc
00000110: edc6 893c 2a7d da3c aab9 e43a 7710 11bd
00000120: 814c 0abd 70e8 1c3c 5489 cabc b49f 13bd
00000130: cc13 b23c a146 0fbd 5f5d 2abd 26d9 d83c
00000140: 0b9b dabc 77b5 903c bd1b ad3b c6b2 a0bc
00000150: 6d01 773b df6b 7dbc c6f2 a23c c822 4bbd
00000160: 1a29 18bd 3549 c3ba e7d8 f9bc 43a9 38bd
00000170: 35ae 27bd 4e24 e4bc c4dd d9bc d0d5 7bbc
00000180: 73ff d63c 8d08 7c3c f4b7 e13c c179 3ebd
00000190: b8fb 5bbd 9f8e 7ebc c9d9 31bd c82d 26bd
000001a0: cea8 ccbb babb debc 351e f6bc 0a90 71bc
000001b0: a7d7 13bc 6883 a6bc 4947 d5bc 9c53 46bc
000001c0: 5802 33bd f1eb 8d3c a5c4 31bd 6d3f f53b
000001d0: eed4 f03c 53b1 f6bc 65a9 7b3c 5395 b13b
000001e0: 2c5d e33c 0bc4 ffbb 3827 bfbc a123 23bc
000001f0: 843b 003c 51e5 56bc ad8b 393d 60cf 06bd
-0.020933758 -0.012650436 -0.02696783 0.02050346 0.023013577 -0.03093282 -0.03675267 -0.013971763
-0.00061504485 -0.008993477 0.028465522 0.022292085 0.025368785 -0.041008085 0.011020697 -0.01235147
0.011355354 0.022907844 0.02603212 -0.021685008 0.024988605 0.004478259 0.016038947 -0.012077097
0.031419143 0.022312734 -0.011573914 -0.04459602 -0.025909513 -0.045572884 0.014112846 -0.02024953
-0.050893407 -0.039873518 -0.05865526 -0.026022509 0.0024301254 -0.03538456 0.017979687 -0.049179103
-0.02503016 0.018080125 -0.015882388 -0.042206954 0.022081865 -0.033293966 -0.008124894 -0.03108196
-0.04666675 -0.027727382 -0.005812363 -0.0036551883 0.0010365273 -0.00881528 0.0065715206 0.0094800675
-0.007390608 0.003004073 0.026521197 -0.010335862 0.0076667415 0.024920754 -0.0040768893 -0.031387314
-0.044613533 -0.015557201 0.0011089081 -0.021783216 0.016818488 0.026671011 0.0017450352 -0.035416093
-0.033764366 0.009576902 -0.024723686 -0.036040977 0.021737956 -0.034979466 -0.041592952 0.026470732
-0.026685258 0.017664654 0.0052828477 -0.019616496 0.0037690059 -0.015467613 0.019891154 -0.049593717
-0.037148573 -0.0014899137 -0.030498935 -0.045083296 -0.04093762 -0.027849343 -0.026595004 -0.015370801
0.026244855 0.015382898 0.027553536 -0.046502832 -0.053706855 -0.015536933 -0.043420587 -0.040571004
-0.006245709 -0.027189124 -0.0300437 -0.014743814 -0.0090235835 -0.020326331 -0.026034968 -0.012104895
-0.043703407 0.01732442 -0.043400425 0.0074843676 0.029398408 -0.030113852 0.015360211 0.005419412
0.027754389 -0.0078053526 -0.02333413 -0.009957225 0.00782669 -0.013116197 0.04529922 -0.032912612

linear.weight f4 [10, 3072]
00000000: a2a1 233c a123 463c 2607 44bc 7465 a4bb
00000010: e3a5 15bd 43a6 8d3b b660 4a3c 3297 c9bc
00000020: 2be1 863c 838f 29bc 3cb7 0f3b e17c 3fbc
00000030: 6059 003c 969c 313c 26ad 19bb 1cb1 40bc
00000040: eb4a 1fbc 1728 2dbb 8612 7ebc a35d 53bc
00000050: a23c d5bb 4db3 c33b 5093 6e3c 0ce9 aa3c
00000060: 99d7 14bd 3750 5abb 3c9a 9bbc a03d 39bc
00000070: 493f 513c 85f9 0e3c 732b bcbb f842 663c
00000080: a675 52bc 50c7 f6bb 3d19 a43c 6898 b9bb
00000090: b5a4 853c de22 c5ba b1c7 30bb 984a 0cbc
000000a0: bcee 073b 30b3 5dbb a540 2338 4932 e23a
000000b0: 1537 953c 88cd 62bc c711 913b 0b3f 5e3c
000000c0: b352 a2bc 01bb 0c3c f90c 8cbb bfe2 98bc
000000d0: 32a4 68bc ab9b 173c 6884 70bc 7770 04bc
000000e0: 67c8 cd3b a524 a139 e8b8 47bc e19a bfbb
000000f0: 3fcd 76bb ee80 dfbb 76f1 2d3c 1a8d 7b3c
00000100: 7c32 7abc 1203 fcbb 39d8 a03c c090 04bc
00000110: dc5c 063c 406a 903c 6ccb 15bc 7a06 303c
00000120: 3a95 74ba 8711 863b 8443 c1bb 3372 923c
00000130: 34e1 f239 3b28 953b 3356 49bb 20cf b7bb
00000140: 76b2 92bb f162 e53b 4ebf e43a 6a88 25bc
00000150: fe60 74bc 69ff 383c 5d88 243c c982 cabb
00000160: 8da1 7fbb 96a5 8b3c e490 85bb 4e25 403b
00000170: 03cc 36bc 2788 8d3c 019f 85bc 55d0 66ba
00000180: eb4b 7e3b 31c7 a33c 5eed 3fbc e2f0 a5bb
00000190: 71ab 473b bc2b 9c3c 63c6 503c eb1f c2ba
000001a0: 7cdb bbbb a549 99bc 915a 68bc c848 35bc
000001b0: 56ae 893b 0207 85bc 1482 153b 076d 813b
000001c0: 2498 d13a 3ad9 3e3a 59d7 55bb f6f8 093c
000001d0: eb61 83bc 5775 323c f35b 6fbb 0d3d 553c
000001e0: d65d 4d3a 0d7b 1d3c 76a4 d73c 90eb a83c
000001f0: 99f6 47bc d3ad 0fbb a27a 3cbc 7d30 ffbb
00000200: 52a2 403c 1395 b9bc a880 94bc 6e01 cfbb
00000210: 6425 9abb eb83 423c b12c afbb b7b0 113c
00000220: d2d2 ae3b fa94 3ebc 696c b33b b634 deba
00000230: 0b9c 243c 7e91 1cbc eb2b 1cbc 1e37 5c3b
00000240: 49d8 71ba 019a bc3c dada 873c 0b70 813c
00000250: 8db1 853c add0 e23c 100b 2f3c bf03 a0ba
00000260: 0193 99bc d064 01bc 927d 1a3c f16f 023c
00000270: 5b1f 22bc a845 3f3c 91a8 aebb 7ecf ccbb
00000280: edfa f03b 269a 20bc 7441 15bb c94b 673c
00000290: dd96 cd3b ef16 62bb 5255 59bc 9fe7 67bb
000002a0: a3a9 49bc 5ea3 9bbc 8e18 06bb 2a14 9e3b
000002b0: 3e29 1c3c 7926 b63b b9b1 5f3a 0d07 92bc
000002c0: ce06 13bc 7f72 9d3c 54e6 8bbb 7a96 0b3c
000002d0: 18bc 433b 60bf 8e3c 8997 683b 90cc 42bc
000002e0: 0671 b03c b7a6 c0bb 8977 233c 55db 6d3b
000002f0: 6f3c 853c 65a1 613c 48c1 5d3b 7892 b2bb
00000300: 91c0 20bc c90f 823b 0547 4fbc 3dfa 3b3c
00000310: 2fa3 63bc 633f 6cbc bef9 433c f7e5 2a3c
00000320: 9f21 4a3c a38d 4b3a 9265 9fbc a183 843b
00000330: c20f 343b cf97 79bb e810 6dbc cc2d d2bb
00000340: 808c f8bb 2133 1d3c ea77 863b c3af b63b
00000350: fb93 5c3c 1e34 4cba 214c d9bb 0b11 a939
00000360: 38fe ac3b 4d73 66bb 446b ccba 5c33 1c3b
00000370: 1ba7 2f3c a9b3 34bc 0ff1 783b ef18 a03b
00000380: c960 4cbc e41e 1ebc fe91 8e3b 110e 473c
00000390: 78d7 8dbc 35f9 593b 1e62 a73a 2573 debb
000003a0: db73 293c 429d 2ebc 118b 293c f6aa 8d3a
000003b0: 7542 c03b 3e61 243c ed46 6bbc 6f00 283c
000003c0: 88de cbba eb86 16bc 54c3 93bc 21e4 83bc
000003d0: 96b5 d33a 8b55 1dbc 81d7 88bc a1e8 c8bb
000003e0: 05f9 02b8 c880 7bbc eba3 a9b9 3297 98bc
000003f0: 3c31 2ebc 24ce 99bb 0c92 383b dd86 b03a
0.009987267 0.0120934555 -0.011964595 -0.005016977 -0.036535155 0.0043227985 0.012352159 -0.024608228
0.01646479 -0.010349157 0.0021929285 -0.011687488 0.007833809 0.010840556 -0.0023449152 -0.011760976
-0.009722452 -0.00264216 -0.015507346 -0.012900743 -0.006507472 0.005972302 0.014561489 0.020863079
-0.036338422 -0.0033311972 -0.018994443 -0.011306196 0.012771436 0.008726482 -0.0057424842 0.0140540525
-0.012845432 -0.007531084 0.020031566 -0.00566392 0.01631389 -0.0015040298 -0.0026974494 -0.008562706
0.0020741662 -0.0033828728 3.8922433e-05 0.0017257418 0.018214742 -0.013842948 0.004427168 0.013564835
-0.019814825 0.008589507 -0.0042740074 -0.018662808 -0.014199303 0.009253423 -0.014680006 -0.008083454
0.0062799933 0.00030735615 -0.012190081 -0.0058473204 -0.0037658957 -0.0068207895 0.010616651 0.015353465
-0.0152708255 -0.0076907957 0.019634353 -0.008091152 0.00820085 0.017628789 -0.009142738 0.010743732
-0.0009330098 0.004091445 -0.005897941 0.01787672 0.00046325626 0.004551915 -0.0030721545 -0.005609408
-0.0044768406 0.00700032 0.0017452033 -0.010103324 -0.014915703 0.011291363 0.010042277 -0.0061801416
-0.0039006204 0.017046731 -0.00407611 0.002931911 -0.011157039 0.017276837 -0.01631117 -0.00088048476
0.0038802575 0.019992443 -0.011714308 -0.005064116 0.0030467177 0.019063823 0.012742612 -0.0014810538
-0.0057329517 -0.018711874 -0.014181749 -0.011064716 0.0042016907 -0.016238693 0.0022813128 0.0039497647
0.0015990776 0.0007280294 -0.0032629578 0.008421173 -0.016037902 0.010892234 -0.0036523312 0.013015044
0.0007834112 0.009611857 0.026323538 0.020620137 -0.01220479 -0.0021923676 -0.011503847 -0.0077877627
0.01175745 -0.022654092 -0.018127754 -0.006317309 -0.0047041643 0.011872272 -0.005345904 0.00889223
0.0053351903 -0.0116321985 0.00547557 -0.0016952965 0.010046969 -0.009556172 -0.009531955 0.0033602188
-0.00092256494 0.023022654 0.016583849 0.015800497 0.016320014 0.027687395 0.01068379 -0.0012208148
-0.018746855 -0.007897571 0.009429352 0.007961259 -0.009895171 0.011674322 -0.0053301533 -0.006250321
0.0073541314 -0.009802377 -0.0022774609 0.01411719 0.006274088 -0.0034498533 -0.013264971 -0.003538586
-0.012308511 -0.018998798 -0.0020461413 0.004824181 0.009531317 0.0055587855 0.00085332576 -0.017825628
-0.00897379 0.019219635 -0.0042694006 0.008519763 0.0029866751 0.01742524 0.0035490713 -0.011889592
0.021538269 -0.005879249 0.00997723 0.0036294062 0.016264169 0.01377139 0.0033837128 -0.0054495893
-0.009811536 0.003969167 -0.01265121 0.011473236 -0.0138938865 -0.014419409 0.011961399 0.010430804
0.012337117 0.0007764941 -0.019457612 0.0040440117 0.0027475213 -0.003808487 -0.014469363 -0.006414151
-0.0075851083 0.00959471 0.0041036503 0.0055751516 0.013463016 -0.00077897485 -0.0066313897 0.0003224689
0.0052793287 -0.003516394 -0.0015595932 0.0023834324 0.010720993 -0.011029162 0.003798548 0.004885785
-0.012474247 -0.00965092 0.0043508997 0.01214935 -0.017314658 0.0033260111 0.001277033 -0.0067886286
0.0103425635 -0.01065761 0.010348097 0.0010808397 0.0058672973 0.01003295 -0.014360172 0.01025401
-0.001555399 -0.00918744 -0.018037476 -0.016099991 0.0016152139 -0.009602915 -0.016704323 -0.006131247
-3.1226333e-05 -0.015350528 -0.0003235632 -0.018626783 -0.010631856 -0.0046937633 0.0028163223 0.0013467927

linear.bias f4 [10]
00000000: a738 4fbc 4d43 acbc dd6c 353c d6a8 22bc
00000010: d851 96bb ffd1 33bc 956a b73c 0042 8ebc
00000020: 1835 d2bc 4466 a9bb
-0.012647784 -0.021028185 0.011073318 -0.009927949 -0.0045873933 -0.01097536 0.02238969 -0.017365456
-0.025660083 -0.0051696617
